name: "Zeiler_conv5"

input: "data"
input_dim: 16
input_dim: 3
input_dim: 224
input_dim: 224


input: "label"
input_dim: 16 # to be changed on-the-fly to match num ROIs
input_dim: 1
input_dim: 1
input_dim: 1

# ------------------------ layer 1 -----------------------------
layers {
   name: "conv1"
   type: CONVOLUTION
   bottom: "data"
   top: "conv1"
   blobs_lr: 1.0
   blobs_lr: 2.0
   convolution_param{
	   num_output: 96
	   kernel_size: 7
	   pad: 3
	   stride: 2
	   weight_filler {
		 type: "gaussian"
		 std: 0.01
	   }
	   bias_filler {
		 type: "constant"
		 value: 0
	   }
   }
}

layers {
   name: "relu1"
   type: RELU
   bottom: "conv1"
   top: "conv1"
}

layers {
    name: "norm1"
    type: LRN
	bottom: "conv1"
    top: "norm1"
	lrn_param{
		local_size: 3
		alpha: 0.00005
		beta: 0.75
		norm_region: WITHIN_CHANNEL
	}
}

layers {
   name: "pool1"
   type: POOLING
   bottom: "norm1"
   top: "pool1"
   pooling_param{
	   kernel_size: 3
	   stride: 2
	   pad: 1
	   pool: MAX
   }
}


# --------------------------- layer 2 ------------------------
layers {
   name: "conv2"
   type: CONVOLUTION
   bottom: "pool1"
   top: "conv2"
   blobs_lr: 1.0
   blobs_lr: 2.0
   convolution_param{
	   num_output: 256
	   kernel_size: 5
	   pad: 2
	   stride: 2
	   weight_filler {
		 type: "gaussian"
		 std: 0.01
	   }
	   bias_filler {
		 type: "constant"
		 value: 1
	   }
   }
}

layers {
   name: "relu2"
   type: RELU
   bottom: "conv2"
   top: "conv2"
}

layers {
    name: "norm2"
    type: LRN
	bottom: "conv2"
    top: "norm2"
	lrn_param{
		local_size: 3
		alpha: 0.00005
		beta: 0.75
		norm_region: WITHIN_CHANNEL
	}
}

layers {
   name: "pool2"
   type: POOLING
   bottom: "norm2"
   top: "pool2"
   pooling_param{
	   kernel_size: 3
	   stride: 2
	   pad: 1
	   pool: MAX
   }
}

#-----------------------layer 3-------------------------
layers {
   name: "conv3"
   type: CONVOLUTION
   bottom: "pool2"
   top: "conv3"
   blobs_lr: 1.0
   blobs_lr: 2.0
   convolution_param{
	   num_output: 384
	   kernel_size: 3
	   pad: 1
	   stride: 1
	   weight_filler {
		 type: "gaussian"
		 std: 0.01
	   }
	   bias_filler {
		 type: "constant"
		 value: 0
	   }
   }
}

layers {
   name: "relu3"
   type: RELU
   bottom: "conv3"
   top: "conv3"
}

#-----------------------layer 4-------------------------
layers {
   name: "conv4"
   type: CONVOLUTION
   bottom: "conv3"
   top: "conv4"
   blobs_lr: 1.0
   blobs_lr: 2.0
   convolution_param{
	   num_output: 384
	   kernel_size: 3
	   pad: 1
	   stride: 1
	   weight_filler {
		 type: "gaussian"
		 std: 0.01
	   }
	   bias_filler {
		 type: "constant"
		 value: 1
	   }
   }
}

layers {
   name: "relu4"
   type: RELU
   bottom: "conv4"
   top: "conv4"
}

#-----------------------layer 5-------------------------
layers {
   name: "conv5"
   type: CONVOLUTION
   bottom: "conv4"
   top: "conv5"
   blobs_lr: 1.0
   blobs_lr: 2.0
   convolution_param{
	   num_output: 256
	   kernel_size: 3
	   pad: 1
	   stride: 1
	   weight_filler {
		 type: "gaussian"
		 std: 0.01
	   }
	   bias_filler {
		 type: "constant"
		 value: 1
	   }
   }
}

layers {
   name: "relu5"
   type: RELU
   bottom: "conv5"
   top: "conv5"
}

#--------------------------layer spm------------------------


layers {
	name: "concat_conv5"
	type: GPU_CONCAT
	bottom: "conv5"
	top: "concat_conv5"
}



layers {
  bottom: "concat_conv5"
  top: "fc6"
  name: "fc6"
   blobs_lr: 1.0
   blobs_lr: 2.0
  type: INNER_PRODUCT
  inner_product_param {
    num_output: 4096
  }
}
layers {
  bottom: "fc6"
  top: "fc6"
  name: "relu6"
  type: RELU
}
layers {
  bottom: "fc6"
  top: "fc6"
  name: "drop6"
  type: DROPOUT
  dropout_param {
    dropout_ratio: 0.5
  }
}
layers {
  bottom: "fc6"
  top: "fc7"
  name: "fc7"
  blobs_lr: 1.0
  blobs_lr: 2.0
  type: INNER_PRODUCT
  inner_product_param {
    num_output: 4096
  }
}
layers {
  bottom: "fc7"
  top: "fc7"
  name: "relu7"
  type: RELU
}
layers {
  bottom: "fc7"
  top: "fc7"
  name: "drop7"
  type: DROPOUT
  dropout_param {
    dropout_ratio: 0.5
  }
}



#-----------------------output------------------------


layers {
   name: "fc8"
   type: INNER_PRODUCT
   inner_product_param{
     num_output: 2356
     weight_filler {
     type: "xavier2"
     }
     bias_filler {
     type: "constant"
     value: 0
     }
   }
 bottom: "fc7"
 top: "fc8"
}



layers {
	name: "concat_label"
	type: GPU_CONCAT
	bottom: "label"
	top: "concat_label"
}



layers {
   name: "loss"
   type: SOFTMAX_LOSS
   bottom: "fc8"
   bottom: "concat_label"
   top: "loss"
}



layers {
   name: "acc"
   type: ACCURACY
   bottom: "fc8"
   bottom: "concat_label"
   top: "acc"
}

